Torch/model.pt (safetensors, 153698 bytes, 2 tensors)

weight f4 [1, 3]
00000000: 0d5c fa3f c235 2ec0 1c47 6c3f
1.9559342 -2.722031 0.92296004

__robj__ u1 [153350]
00000000: 580a 0000 0003 0004 0301 0003 0500 0000
00000010: 0005 5554 462d 3800 0207 0300 0004 0200
00000020: 0000 0100 0400 0900 0000 0563 6c61 7373
00000030: 0000 0010 0000 0002 0004 0009 0000 0009
00000040: 6e6e 5f6c 696e 6561 7200 0400 0900 0000
00000050: 096e 6e5f 6d6f 6475 6c65 0000 0402 0000
00000060: 0001 0004 0009 0000 0006 6d6f 6475 6c65
00000070: 0000 0004 0000 0000 0000 00f2 0000 0402
00000080: 0000 0001 0004 0009 0000 000c 6f75 745f
00000090: 6665 6174 7572 6573 0000 000e 0000 0001
000000a0: 3ff0 0000 0000 0000 0000 0402 0000 0001
000000b0: 0004 0009 0000 000b 696e 5f66 6561 7475
000000c0: 7265 7300 0000 0e00 0000 0140 0800 0000
000000d0: 0000 0000 0004 0200 0000 0100 0400 0900
000000e0: 0000 0f2e 5f5f 656e 636c 6f73 5f65 6e76
000000f0: 5f5f 0000 0004 0000 0000 0000 0004 0000
88 10 0 0 0 3 0 4
3 1 0 3 5 0 0 0
0 5 85 84 70 45 56 0
2 7 3 0 0 4 2 0
0 0 1 0 4 0 9 0
0 0 5 99 108 97 115 115
0 0 0 16 0 0 0 2
0 4 0 9 0 0 0 9
110 110 95 108 105 110 101 97
114 0 4 0 9 0 0 0
9 110 110 95 109 111 100 117
108 101 0 0 4 2 0 0
0 1 0 4 0 9 0 0
0 6 109 111 100 117 108 101
0 0 0 4 0 0 0 0
0 0 0 242 0 0 4 2
0 0 0 1 0 4 0 9
0 0 0 12 111 117 116 95
102 101 97 116 117 114 101 115
0 0 0 14 0 0 0 1
63 240 0 0 0 0 0 0
0 0 4 2 0 0 0 1
0 4 0 9 0 0 0 11
105 110 95 102 101 97 116 117
114 101 115 0 0 0 14 0
0 0 1 64 8 0 0 0
0 0 0 0 0 4 2 0
0 0 1 0 4 0 9 0
0 0 15 46 95 95 101 110
99 108 111 115 95 101 110 118
95 95 0 0 0 4 0 0
0 0 0 0 0 4 0 0
